…
['${data_base_dir}/PoolBoiling-SubCooled-FC72-2D-0.1/Twall-90.hdf5', '${data_base_dir}/PoolBoiling-SubCooled-FC72-2D-0.1/Twall-92.hdf5', '${data_base_dir}/PoolBoiling-SubCooled-FC72-2D-0.1/Twall-95.hdf5', '${data_base_dir}/PoolBoiling-SubCooled-FC72-2D-0.1/Twall-97.hdf5', '${data_base_dir}/PoolBoiling-SubCooled-FC72-2D-0.1/Twall-98.hdf5', '${data_base_dir}/PoolBoiling-SubCooled-FC72-2D-0.1/Twall-100.hdf5', '${data_base_dir}/PoolBoiling-SubCooled-FC72-2D-0.1/Twall-102.hdf5', '${data_base_dir}/PoolBoiling-SubCooled-FC72-2D-0.1/Twall-106.hdf5', '${data_base_dir}/PoolBoiling-SubCooled-FC72-2D-0.1/Twall-108.hdf5', '${data_base_dir}/PoolBoiling-SubCooled-FC72-2D-0.1/Twall-110.hdf5']
wall temp tensor(102.0526, dtype=torch.float64)
train size:  1058
Unet(
  (activation): GELU(approximate='none')
  (image_proj): Conv2d(17, 32, kernel_size=(1, 1), stride=(1, 1))
  (down): ModuleList(
    (0-1): 2 x DownBlock(
      (res): ResidualBlock(
        (activation): GELU(approximate='none')
        (conv1): Conv2d(32, 32, kernel_size=(3, 3), stride=(1, 1), padding=(1, 1))
        (conv2): Conv2d(32, 32, kernel_size=(3, 3), stride=(1, 1), padding=(1, 1))
        (shortcut): Identity()
        (norm1): GroupNorm(1, 32, eps=1e-05, affine=True)
        (norm2): GroupNorm(1, 32, eps=1e-05, affine=True)
      )
      (attn): Identity()
    )
    (2): Downsample(
      (conv): Conv2d(32, 32, kernel_size=(3, 3), stride=(2, 2), padding=(1, 1))
    )
    (3): DownBlock(
      (res): ResidualBlock(
        (activation): GELU(approximate='none')
        (conv1): Conv2d(32, 64, kernel_size=(3, 3), stride=(1, 1), padding=(1, 1))
        (conv2): Conv2d(64, 64, kernel_size=(3, 3), stride=(1, 1), padding=(1, 1))
        (shortcut): Conv2d(32, 64, kernel_size=(1, 1), stride=(1, 1))
        (norm1): GroupNorm(1, 32, eps=1e-05, affine=True)
        (norm2): GroupNorm(1, 64, eps=1e-05, affine=True)
      )
      (attn): Identity()
    )
    (4): DownBlock(
      (res): ResidualBlock(
        (activation): GELU(approximate='none')
        (conv1): Conv2d(64, 64, kernel_size=(3, 3), stride=(1, 1), padding=(1, 1))
        (conv2): Conv2d(64, 64, kernel_size=(3, 3), stride=(1, 1), padding=(1, 1))
        (shortcut): Identity()
        (norm1): GroupNorm(1, 64, eps=1e-05, affine=True)
        (norm2): GroupNorm(1, 64, eps=1e-05, affine=True)
      )
      (attn): Identity()
    )
    (5): Downsample(
      (conv): Conv2d(64, 64, kernel_size=(3, 3), stride=(2, 2), padding=(1, 1))
    )
    (6): DownBlock(
      (res): ResidualBlock(
        (activation): GELU(approximate='none')
        (conv1): Conv2d(64, 128, kernel_size=(3, 3), stride=(1, 1), padding=(1, 1))
        (conv2): Conv2d(128, 128, kernel_size=(3, 3), stride=(1, 1), padding=(1, 1))
        (shortcut): Conv2d(64, 128, kernel_size=(1, 1), stride=(1, 1))
        (norm1): GroupNorm(1, 64, eps=1e-05, affine=True)
        (norm2): GroupNorm(1, 128, eps=1e-05, affine=True)
      )
      (attn): Identity()
    )
    (7): DownBlock(
      (res): ResidualBlock(
        (activation): GELU(approximate='none')
        (conv1): Conv2d(128, 128, kernel_size=(3, 3), stride=(1, 1), padding=(1, 1))
        (conv2): Conv2d(128, 128, kernel_size=(3, 3), stride=(1, 1), padding=(1, 1))
        (shortcut): Identity()
        (norm1): GroupNorm(1, 128, eps=1e-05, affine=True)
        (norm2): GroupNorm(1, 128, eps=1e-05, affine=True)
      )
      (attn): Identity()
    )
    (8): Downsample(
      (conv): Conv2d(128, 128, kernel_size=(3, 3), stride=(2, 2), padding=(1, 1))
    )
    (9): DownBlock(
      (res): ResidualBlock(
        (activation): GELU(approximate='none')
        (conv1): Conv2d(128, 512, kernel_size=(3, 3), stride=(1, 1), padding=(1, 1))
        (conv2): Conv2d(512, 512, kernel_size=(3, 3), stride=(1, 1), padding=(1, 1))
        (shortcut): Conv2d(128, 512, kernel_size=(1, 1), stride=(1, 1))
        (norm1): GroupNorm(1, 128, eps=1e-05, affine=True)
        (norm2): GroupNorm(1, 512, eps=1e-05, affine=True)
      )
      (attn): Identity()
    )
    (10): DownBlock(
      (res): ResidualBlock(
        (activation): GELU(approximate='none')
        (conv1): Conv2d(512, 512, kernel_size=(3, 3), stride=(1, 1), padding=(1, 1))
        (conv2): Conv2d(512, 512, kernel_size=(3, 3), stride=(1, 1), padding=(1, 1))
        (shortcut): Identity()
        (norm1): GroupNorm(1, 512, eps=1e-05, affine=True)
        (norm2): GroupNorm(1, 512, eps=1e-05, affine=True)
      )
      (attn): Identity()
    )
    (11): Downsample(
      (conv): Conv2d(512, 512, kernel_size=(3, 3), stride=(2, 2), padding=(1, 1))
    )
    (12): DownBlock(
      (res): ResidualBlock(
        (activation): GELU(approximate='none')
        (conv1): Conv2d(512, 2048, kernel_size=(3, 3), stride=(1, 1), padding=(1, 1))
        (conv2): Conv2d(2048, 2048, kernel_size=(3, 3), stride=(1, 1), padding=(1, 1))
        (shortcut): Conv2d(512, 2048, kernel_size=(1, 1), stride=(1, 1))
        (norm1): GroupNorm(1, 512, eps=1e-05, affine=True)
        (norm2): GroupNorm(1, 2048, eps=1e-05, affine=True)
      )
      (attn): Identity()
    )
    (13): DownBlock(
      (res): ResidualBlock(
        (activation): GELU(approximate='none')
        (conv1): Conv2d(2048, 2048, kernel_size=(3, 3), stride=(1, 1), padding=(1, 1))
        (conv2): Conv2d(2048, 2048, kernel_size=(3, 3), stride=(1, 1), padding=(1, 1))
        (shortcut): Identity()
        (norm1): GroupNorm(1, 2048, eps=1e-05, affine=True)
        (norm2): GroupNorm(1, 2048, eps=1e-05, affine=True)
      )
      (attn): Identity()
    )
  )
  (middle): MiddleBlock(
    (res1): ResidualBlock(
      (activation): GELU(approximate='none')
      (conv1): Conv2d(2048, 2048, kernel_size=(3, 3), stride=(1, 1), padding=(1, 1))
      (conv2): Conv2d(2048, 2048, kernel_size=(3, 3), stride=(1, 1), padding=(1, 1))
      (shortcut): Identity()
      (norm1): GroupNorm(1, 2048, eps=1e-05, affine=True)
      (norm2): GroupNorm(1, 2048, eps=1e-05, affine=True)
    )
    (attn): Identity()
    (res2): ResidualBlock(
      (activation): GELU(approximate='none')
      (conv1): Conv2d(2048, 2048, kernel_size=(3, 3), stride=(1, 1), padding=(1, 1))
      (conv2): Conv2d(2048, 2048, kernel_size=(3, 3), stride=(1, 1), padding=(1, 1))
      (shortcut): Identity()
      (norm1): GroupNorm(1, 2048, eps=1e-05, affine=True)
      (norm2): GroupNorm(1, 2048, eps=1e-05, affine=True)
    )
  )
  (up): ModuleList(
    (0-1): 2 x UpBlock(
      (res): ResidualBlock(
        (activation): GELU(approximate='none')
        (conv1): Conv2d(4096, 2048, kernel_size=(3, 3), stride=(1, 1), padding=(1, 1))
        (conv2): Conv2d(2048, 2048, kernel_size=(3, 3), stride=(1, 1), padding=(1, 1))
        (shortcut): Conv2d(4096, 2048, kernel_size=(1, 1), stride=(1, 1))
        (norm1): GroupNorm(1, 4096, eps=1e-05, affine=True)
        (norm2): GroupNorm(1, 2048, eps=1e-05, affine=True)
      )
      (attn): Identity()
    )
    (2): UpBlock(
      (res): ResidualBlock(
        (activation): GELU(approximate='none')
        (conv1): Conv2d(2560, 512, kernel_size=(3, 3), stride=(1, 1), padding=(1, 1))
        (conv2): Conv2d(512, 512, kernel_size=(3, 3), stride=(1, 1), padding=(1, 1))
        (shortcut): Conv2d(2560, 512, kernel_size=(1, 1), stride=(1, 1))
        (norm1): GroupNorm(1, 2560, eps=1e-05, affine=True)
        (norm2): GroupNorm(1, 512, eps=1e-05, affine=True)
      )
      (attn): Identity()
    )
    (3): Upsample(
      (conv): ConvTranspose2d(512, 512, kernel_size=(4, 4), stride=(2, 2), padding=(1, 1))
    )
    (4-5): 2 x UpBlock(
      (res): ResidualBlock(
        (activation): GELU(approximate='none')
        (conv1): Conv2d(1024, 512, kernel_size=(3, 3), stride=(1, 1), padding=(1, 1))
        (conv2): Conv2d(512, 512, kernel_size=(3, 3), stride=(1, 1), padding=(1, 1))
        (shortcut): Conv2d(1024, 512, kernel_size=(1, 1), stride=(1, 1))
        (norm1): GroupNorm(1, 1024, eps=1e-05, affine=True)
        (norm2): GroupNorm(1, 512, eps=1e-05, affine=True)
      )
      (attn): Identity()
    )
    (6): UpBlock(
      (res): ResidualBlock(
        (activation): GELU(approximate='none')
        (conv1): Conv2d(640, 128, kernel_size=(3, 3), stride=(1, 1), padding=(1, 1))
        (conv2): Conv2d(128, 128, kernel_size=(3, 3), stride=(1, 1), padding=(1, 1))
        (shortcut): Conv2d(640, 128, kernel_size=(1, 1), stride=(1, 1))
        (norm1): GroupNorm(1, 640, eps=1e-05, affine=True)
        (norm2): GroupNorm(1, 128, eps=1e-05, affine=True)
      )
      (attn): Identity()
    )
    (7): Upsample(
      (conv): ConvTranspose2d(128, 128, kernel_size=(4, 4), stride=(2, 2), padding=(1, 1))
    )
    (8-9): 2 x UpBlock(
      (res): ResidualBlock(
        (activation): GELU(approximate='none')
        (conv1): Conv2d(256, 128, kernel_size=(3, 3), stride=(1, 1), padding=(1, 1))
        (conv2): Conv2d(128, 128, kernel_size=(3, 3), stride=(1, 1), padding=(1, 1))
        (shortcut): Conv2d(256, 128, kernel_size=(1, 1), stride=(1, 1))
        (norm1): GroupNorm(1, 256, eps=1e-05, affine=True)
        (norm2): GroupNorm(1, 128, eps=1e-05, affine=True)
      )
      (attn): Identity()
    )
    (10): UpBlock(
      (res): ResidualBlock(
        (activation): GELU(approximate='none')
        (conv1): Conv2d(192, 64, kernel_size=(3, 3), stride=(1, 1), padding=(1, 1))
        (conv2): Conv2d(64, 64, kernel_size=(3, 3), stride=(1, 1), padding=(1, 1))
        (shortcut): Conv2d(192, 64, kernel_size=(1, 1), stride=(1, 1))
        (norm1): GroupNorm(1, 192, eps=1e-05, affine=True)
        (norm2): GroupNorm(1, 64, eps=1e-05, affine=True)
      )
      (attn): Identity()
    )
    (11): Upsample(
      (conv): ConvTranspose2d(64, 64, kernel_size=(4, 4), stride=(2, 2), padding=(1, 1))
    )
    (12-13): 2 x UpBlock(
      (res): ResidualBlock(
        (activation): GELU(approximate='none')
        (conv1): Conv2d(128, 64, kernel_size=(3, 3), stride=(1, 1), padding=(1, 1))
        (conv2): Conv2d(64, 64, kernel_size=(3, 3), stride=(1, 1), padding=(1, 1))
        (shortcut): Conv2d(128, 64, kernel_size=(1, 1), stride=(1, 1))
        (norm1): GroupNorm(1, 128, eps=1e-05, affine=True)
        (norm2): GroupNorm(1, 64, eps=1e-05, affine=True)
      )
      (attn): Identity()
    )
    (14): UpBlock(
      (res): ResidualBlock(
        (activation): GELU(approximate='none')
        (conv1): Conv2d(96, 32, kernel_size=(3, 3), stride=(1, 1), padding=(1, 1))
        (conv2): Conv2d(32, 32, kernel_size=(3, 3), stride=(1, 1), padding=(1, 1))
        (shortcut): Conv2d(96, 32, kernel_size=(1, 1), stride=(1, 1))
        (norm1): GroupNorm(1, 96, eps=1e-05, affine=True)
        (norm2): GroupNorm(1, 32, eps=1e-05, affine=True)
      )
      (attn): Identity()
    )
    (15): Upsample(
      (conv): ConvTranspose2d(32, 32, kernel_size=(4, 4), stride=(2, 2), padding=(1, 1))
    )
    (16-18): 3 x UpBlock(
      (res): ResidualBlock(
        (activation): GELU(approximate='none')
        (conv1): Conv2d(64, 32, kernel_size=(3, 3), stride=(1, 1), padding=(1, 1))
        (conv2): Conv2d(32, 32, kernel_size=(3, 3), stride=(1, 1), padding=(1, 1))
        (shortcut): Conv2d(64, 32, kernel_size=(1, 1), stride=(1, 1))
        (norm1): GroupNorm(1, 64, eps=1e-05, affine=True)
        (norm2): GroupNorm(1, 32, eps=1e-05, affine=True)
      )
      (attn): Identity()
    )
  )
  (norm): GroupNorm(8, 32, eps=1e-05, affine=True)
  (final): Conv2d(32, 10, kernel_size=(1, 1), stride=(1, 1))
)
Model has 566747530 parameters
<op_lib.vel_coord_trainer.VelCoordTrainer object at 0x7f22ca61fd60>
epoch  0
/data/homezvol3/junchc2/.conda/envs/bubble-sciml3/lib/python3.9/site-packages/torch/nn/modules/conv.py:456: UserWarning: Applied workaround for CuDNN issue, install nvrtc.so (Triggered internally at /opt/conda/conda-bld/pytorch_1702400441250/work/aten/src/ATen/native/cudnn/Conv_v8.cpp:80.)
…
